checkpoints_cartpole/CartPole-v1_best_model.pth (torch, 21342 bytes, 6 tensors)

net.0.weight f4 [64, 4]
000000 0b ec 4a bd b3 9c 10 3f 21 24 1d 3e 96 aa 13 3f
       -0.049541514 0.56489104 0.15345813 0.5768217
000010 66 05 b9 be ec 72 1a 3f 37 42 31 40 36 62 82 3f
       -0.3613693 0.60331607 2.7696664 1.0186222
000020 ab 0d e1 3d 23 62 a4 be 19 6f dc 3e a2 ff 10 3e
       0.10988935 -0.32106122 0.4305351 0.14160016
000030 f8 3c b1 3d 7d fd e5 3d 7c 11 6e 3e 24 21 ba 3c
       0.08654207 0.1122999 0.23248857 0.02272088
000040 97 57 0b 3e 02 c6 68 3e b4 10 f0 be 1f d2 16 3e
       0.13607632 0.22731784 -0.46887743 0.14728592
000050 5c 3c de 3d 49 1b 10 3f af 7f 3f 40 68 9f 9f 3f
       0.108513564 0.56291634 2.9921682 1.2470522
000060 ed 11 74 bf 82 ed af be ac 61 3a bf 89 92 d1 be
       -0.9533985 -0.34360892 -0.72805285 -0.4093211
000070 34 d3 88 bf a4 6e af bf cb c3 23 c0 dd 7b 8c bf
       -1.0689454 -1.370564 -2.5588253 -1.09753
000080 7c 34 c9 3d ff fd 8a 3e 05 3f 1b be 0e 33 cf 3e
       0.09824464 0.2714691 -0.15160759 0.4046864
000090 20 b8 ab be 37 5c dd 3e f7 71 0d 3e 82 90 97 bc
       -0.33538914 0.43234417 0.13813005 -0.018501524
0000a0 1e 9e e3 bf d4 c7 ac bf c7 26 ef 3f 1d 73 81 bd
       -1.7782629 -1.3498483 1.8683709 -0.06320784
0000b0 2c 68 14 3e 4c 2f a4 be cf de c4 bd cc 0c c0 3d
       0.14492863 -0.32067335 -0.0961281 0.09377441
0000c0 71 5a da 3f 9a 17 81 3d 0b 31 0b c0 d6 40 40 bf
       1.705885 0.0630333 -2.1748683 -0.7509893
0000d0 66 f1 82 bf c6 7c f8 bd da 70 a8 3e 06 1b 12 3f
       -1.0229919 -0.12133174 0.328986 0.57072484
0000e0 40 4a 96 be 24 8b 34 be c0 f9 43 3e 22 97 8d be
       -0.29353523 -0.17631203 0.19138241 -0.27654368
0000f0 66 d0 99 bf 74 0f a6 bf 13 f0 22 c0 2f 60 7b bf
       -1.2016723 -1.2973466 -2.545903 -0.9819364
000100 63 51 5c be ed c7 00 be 58 64 11 be 1b 37 bf be
       -0.21515422 -0.12576266 -0.14198434 -0.3734673
000110 95 d5 26 bf 77 8c 89 be b6 43 2f 3f fb a1 44 3e
       -0.6516965 -0.2686498 0.68462694 0.19202416
000120 8c e9 5f 3e f8 6c c7 be 6f 0e cf bf a7 a1 2d bf
       0.21866435 -0.38950324 -1.617628 -0.67824787
000130 3e a2 ca 3e 0e f4 2f 3f 6e 24 61 40 db e0 58 3f
       0.39576906 0.6873177 3.5178485 0.847181
000140 86 25 e4 bf d5 99 ac bf e5 4a 2a c0 7c 33 7e bf
       -1.7823951 -1.3484446 -2.6608212 -0.9929731
000150 ce 19 dc bd 28 c3 91 be 49 8b 85 be 0e e8 d6 be
       -0.10747109 -0.28469205 -0.2608283 -0.4197392
000160 95 d3 02 bf ce e1 12 3e 62 a5 b1 bd 63 87 96 bd
       -0.511041 0.1434395 -0.086741224 -0.07350042
000170 2c ce 3a 40 3e 2a 87 3e 4a 47 c4 bf 00 30 d4 be
       2.9188337 0.26399416 -1.5334256 -0.4144287
000180 2f 5f f3 3f 80 2e c7 3d c8 e4 18 c0 0f ce 84 bf
       1.9013423 0.09725666 -2.3889637 -1.0375384
000190 99 47 ca bf aa a5 8d bf 4f cb 45 c0 79 f0 5b bf
       -1.58031 -1.1066182 -3.090534 -0.8591381
0001a0 e0 91 bc be 41 72 3c bf 32 a0 06 c0 6c a0 be be
       -0.36830044 -0.7361184 -2.1035275 -0.37231767
0001b0 23 8b c9 bf a5 c3 a8 be 76 d8 d9 3f bb 51 93 3e
       -1.5745586 -0.32961765 1.7019184 0.28773293
0001c0 97 19 5a 3e c4 dc 59 bf e7 63 a8 bf d8 14 b0 3d
       0.21298824 -0.85102487 -1.3155488 0.08597726
0001d0 3a 4c a6 bf 52 6d a5 bf 70 b9 42 c0 95 6c 83 bf
       -1.2992013 -1.2923987 -3.0425682 -1.0267512
0001e0 a5 54 14 3e 85 60 98 bf 88 9e fb be 1a 58 5b bf
       0.14485414 -1.1904455 -0.49144387 -0.8568131
0001f0 27 44 7e bf 48 19 db be 64 24 6c bf 95 4e 07 bf
       -0.9932274 -0.42792726 -0.9224303 -0.5285428
000200 22 6c 96 3d 2f 39 eb bc 7d 5c 46 3f bb 02 9c 3e
       0.073448434 -0.02871379 0.77484876 0.30470833
000210 f1 34 50 bf 0d f3 3e 3f 5b 68 bc 3f d0 84 74 3e
       -0.8133078 0.74589616 1.4719347 0.23878789
000220 2b 74 68 bf ea 29 bd bf 5d be 41 3b dd 92 67 be
       -0.9080226 -1.4778416 0.0029562928 -0.22614618
000230 ca 33 54 bf 08 22 9e bf 40 15 15 c0 34 36 73 bf
       -0.82891524 -1.2354136 -2.329422 -0.9500458
000240 00 c2 12 3f 19 e7 38 3f 13 b3 63 40 c2 95 4b 3f
       0.5732727 0.7222763 3.5578048 0.7952539
000250 a0 34 e9 3e f2 fc ca be 88 da 00 3e 78 39 5c be
       0.45547962 -0.39646107 0.12583363 -0.21506298
000260 72 7a 21 bf 77 e6 1a bf 64 10 bd 3e 48 d9 9a be
       -0.6307746 -0.6050791 0.36926568 -0.30243897
000270 f6 ef 5c 40 66 fe 4f 3f 72 5e 45 40 98 f1 23 3f
       3.452146 0.81247556 3.0838895 0.6404052
000280 df 83 79 40 4b a4 10 3f e4 f8 54 3f 9a 71 d0 3d
       3.8986738 0.5650069 0.83192277 0.10177918
000290 55 af 58 3e 61 3e 98 be ac d4 cd bf c4 e9 b2 3e
       0.21160634 -0.2973509 -1.6080527 0.34943974
0002a0 1a ed ac 3e a0 37 38 be 2e 58 a2 bf 27 1c 9b 3c
       0.33774644 -0.17989969 -1.268316 0.018934323
0002b0 b8 12 d9 3f e9 60 50 bc 17 51 02 c0 18 81 2f bf
       1.6958838 -0.012718418 -2.0361993 -0.68556356
0002c0 41 96 3e be 99 f9 83 3f f5 85 2e 40 eb 07 17 bf
       -0.18612005 1.0310546 2.726926 -0.58996457
0002d0 dd 36 13 40 63 80 80 3e 44 37 ec 3e 0f 72 6d 3e
       2.3002236 0.2509795 0.46135914 0.23188041
0002e0 c2 b0 0f bf 97 b1 8b 3e ac dc e6 3f 92 52 15 3e
       -0.56129086 0.27283928 1.8036094 0.1458228
0002f0 c6 36 aa bf d4 62 82 bf 78 67 3f c0 77 36 4a bf
       -1.3297966 -1.018641 -2.9906902 -0.78989357
000300 c4 b0 67 40 7b 6b 8a 3f 9a 2a 27 40 11 8c 33 3f
       3.620164 1.081405 2.6119752 0.701356
000310 4b 7e a5 be fb 04 89 3c 84 93 16 3e c8 db 77 3e
       -0.32322916 0.016726008 0.1470471 0.24204934
000320 e1 73 e6 bf 87 21 47 bf a9 1f 27 be fd 7d 8d be
       -1.8004113 -0.77785534 -0.16320671 -0.27635184
000330 75 71 5e bf b3 01 33 bf 78 37 bd bf 11 97 20 bf
       -0.8689187 -0.6992447 -1.4782553 -0.6273051
000340 c6 23 09 40 b0 79 a1 3f 96 f6 78 40 d4 d8 6e 3f
       2.1428084 1.2615261 3.8900504 0.93299603
000350 b5 0c 8b bf 76 58 95 bf 64 83 fa 3c 87 ba aa 3e
       -1.0863253 -1.1667621 0.03058023 0.33345434
000360 86 77 a6 be da c4 0c be ca 12 74 be 64 c0 89 be
       -0.32513064 -0.13746968 -0.23835292 -0.26904595
000370 48 c1 21 bf 89 0f 98 3e 2d 6b d4 be 1c e0 60 3c
       -0.6318555 0.29699352 -0.4148802 0.013725307
000380 15 a8 ac bf 9d e7 eb 3d 1d 79 5b 3f 3f 51 ec 3e
       -1.3488795 0.11518786 0.8573168 0.46155736
000390 d9 3d d5 be 5c f1 31 bf 06 3f 54 bf 81 42 50 3e
       -0.4164875 -0.6950891 -0.82908666 0.20337869
0003a0 cd 2f 48 bc 44 50 0b 3f 17 c0 21 3f e3 af ac 3e
       -0.012218428 0.5441935 0.6318373 0.3372794
0003b0 c8 c1 48 bf 69 7e 4b bf 0a 3c e4 bf 01 16 26 bf
       -0.78420687 -0.7948976 -1.7830822 -0.64877325
0003c0 12 3c c1 3d 34 15 44 be 8d 0e 9b bf 18 3e 0a bf
       0.09435286 -0.19148713 -1.2113816 -0.54001
0003d0 8a c4 f0 bd 74 6c 97 be 78 23 07 bf 12 5b 45 3e
       -0.11756237 -0.2957493 -0.52788496 0.19273022
0003e0 5e 30 5b be d8 31 d2 3e a0 6e ec be 53 b3 61 be
       -0.2140517 0.41053653 -0.4617815 -0.22041063
0003f0 68 e4 65 bf 8e 7d 1f bf 34 f9 8c bf 11 a9 22 bf
       -0.89801645 -0.62300956 -1.1013551 -0.63539225

net.0.bias f4 [64]
000000 92 a0 b3 3f d3 c7 e8 be 5b 42 a5 3f 82 1d 9e 3f
       1.4033377 -0.45464954 1.2910875 1.2352755
000010 77 29 b1 3f e9 55 43 be 81 6a 88 3f ee ff 84 3e
       1.3840779 -0.19075741 1.0657502 0.2597651
000020 62 b4 a3 3f 13 04 c0 3f 7f cb 8b 3f 2e b7 84 3f
       1.2789423 1.5001243 1.0921477 1.0368402
000030 50 c1 14 bf eb f2 0a be 8b a9 99 3f 08 42 01 3e
       -0.5810747 -0.13569228 1.2004865 0.12622845
000040 4e b9 9f 3f cf 4b 9e 3f de e2 a5 3f 42 ff 4b 3f
       1.2478426 1.2366885 1.2959859 0.7968637
000050 87 ec c2 3d f5 30 86 3f 8a 4e 9e 3f 75 1f c7 bd
       0.0951777 1.048369 1.2367718 -0.09722797
000060 9e 39 cd be 71 d9 61 3e 14 e1 25 3f 91 1d 1f bf
       -0.4008302 0.22055604 0.64796567 -0.6215449
000070 25 60 96 3e 40 c5 87 3e b5 3e fc be 87 34 89 3f
       0.29370227 0.26517677 -0.49266592 1.0719155
000080 01 08 b6 3f 3b d6 32 3f 3e 02 4c 3f fc e2 34 3e
       1.4221193 0.6985814 0.7969092 0.17664713
000090 66 2e 28 3f fe 1f f9 be 4c 01 74 3f 33 dc 2b be
       0.656958 -0.4865722 0.9531448 -0.16783218
0000a0 de 00 ce be ac c5 3c 3f 8c ab f5 3e b7 a2 35 bf
       -0.40235037 0.73739123 0.47982442 -0.7095141
0000b0 f3 fb ae 3e 52 16 65 3f b0 d1 27 3f 5c 49 34 3e
       0.34176597 0.89487183 0.6555433 0.1760611
0000c0 70 0f 55 be b2 38 b5 3f fa 17 19 3e e6 b3 18 3f
       -0.2080667 1.4157927 0.14950553 0.59649503
0000d0 80 fd 58 bd 28 86 7e 3f 69 ef b2 3f 81 46 99 3f
       -0.05297613 0.99423456 1.3979312 1.1974641
0000e0 a4 a7 11 bf f9 37 8c 3f 6d 6d c2 3f 75 37 24 3f
       -0.56896424 1.0954581 1.5189644 0.6414712
0000f0 67 a2 95 3f 14 c1 af 3f 86 3d 9c 3f d0 9a 22 3f
       1.1690186 1.3730798 1.2206275 0.63517475

net.2.weight f4 [64, 64]
000000 6c c8 bb 3e 1a b7 f1 bf 33 96 ee 3e 4d f8 f7 3e
       0.36676347 -1.8884003 0.46598968 0.48431626
000010 2d d9 a9 3e 41 a0 ec 3c b2 1a 87 3e ab 3c 72 c0
       0.33173504 0.028885009 0.26387554 -3.7849529
000020 cc 3c a5 3e 6d f6 d3 3e 79 6c 10 3e c1 1e a3 3e
       0.32272947 0.41398945 0.14103879 0.318594
000030 9b 1b 9f bf 2b 8c 5f 3f d3 fd ee 3e 91 2b 30 c0
       -1.24303 0.87323254 0.46678028 -2.752659
000040 7c ec c5 3e 53 32 f0 3e 3b 51 85 3e 22 88 19 c0
       0.38656986 0.46913394 0.26038536 -2.398934
000050 aa be 46 c0 4b b2 a8 3e 52 d1 c3 3e 01 b1 2a 3d
       -3.1053872 0.32948527 0.38245636 0.04167271
000060 96 09 bb be 64 43 62 c0 de ad 43 3e 9e ab 2c bf
       -0.3653075 -3.5353632 0.19109294 -0.6744937
000070 15 25 95 3e ef 50 70 c0 99 96 6c 3f 73 df cd 3e
       0.29129854 -3.7549398 0.92417294 0.4020954
000080 60 4a 05 3f a3 3e 12 3f 40 98 39 3d 8e 42 67 c0
       0.5206661 0.57126826 0.045311213 -3.6134372
000090 8e 19 31 c0 90 49 3d bc f2 fa 90 3e e3 10 41 c0
       -2.7671847 -0.011553183 0.28316456 -3.0166557
0000a0 08 75 c6 bf d9 89 ca 3d 85 f4 b6 3e 4b 5e 9f bf
       -1.5504465 0.098895736 0.3573343 -1.2450651
0000b0 dc 8b 52 3f ff 84 a0 bf e6 c1 b7 3e 9c 67 7d c0
       0.8224466 -1.2540587 0.3589012 -3.9594488
0000c0 82 8a 60 c0 5c 51 e0 3e a6 78 6e bf 3b 1d 97 3e
       -3.5084538 0.43812072 -0.93152845 0.2951449
0000d0 f3 d7 1e c0 7b 14 14 3e 64 fa 9f 3e 96 3f c5 3e
       -2.4819305 0.14460938 0.3124572 0.38525075
0000e0 86 b7 0b 3f a0 36 9c 3e e8 87 11 3f a8 e4 9f 3d
       0.5457691 0.30510426 0.56848 0.078072846
0000f0 b9 7e d6 3e f8 e7 97 3e 00 00 6b 3e 78 90 b4 3e
       0.41893557 0.29669166 0.22949219 0.3526647
000100 53 0f c8 bc 3e e9 e8 3d 6f 6f 0a be 5f df 97 bd
       -0.02442137 0.113726124 -0.13519071 -0.074156515
000110 4e 92 3e 3d c0 18 df bc 49 10 1a bd b8 65 55 bd
       0.046526246 -0.027233481 -0.037613187 -0.05209896
000120 a7 05 75 3d bb 92 0d 3d db 73 e5 3c a5 15 cd bd
       0.059819844 0.03456376 0.028009346 -0.10013894
000130 99 8c e7 bd 50 83 5d 3c 56 d5 06 3c 80 65 6c bd
       -0.11306114 0.013520077 0.008229574 -0.057713985
000140 8e de 80 bd 12 83 36 3d 4b bc 8d bc f8 1c e4 bb
       -0.06292449 0.044558592 -0.0173017 -0.006961461
000150 c8 01 fc bc d2 bc 10 be bf 63 18 be 4a b0 8e bd
       -0.030762568 -0.14134529 -0.148818 -0.06967218
000160 5a 21 82 bd f4 83 1f 3d 57 3b 46 bd 8f dd 5d bd
       -0.063540176 0.0389442 -0.048396435 -0.054166373
000170 ec 68 db 3d 66 f7 04 3d c4 80 b6 3d 0c 9d 94 bd
       0.10713372 0.0324625 0.08911279 -0.07256517
000180 5b 29 a0 bd e5 d0 5a 3c c9 2c c3 bd 26 59 a7 bd
       -0.07820388 0.013355468 -0.095300265 -0.081713006
000190 05 78 97 bc fc 44 3b bd a8 a3 db bd 13 b2 7e 3d
       -0.018489847 -0.045720086 -0.10724574 0.062181544
0001a0 3b 8f b6 3d 79 34 c6 bb 2e a1 2a bd 3a 20 ed bd
       0.08914038 -0.0060487357 -0.04165762 -0.11578412
0001b0 4a eb 9e bd 81 37 a1 3c 6f 98 de 3c 98 73 81 bc
       -0.077597216 0.019679787 0.027172295 -0.01580219
0001c0 31 0e 7b bd 61 53 26 3d 18 75 e0 bd 55 30 89 3d
       -0.06129283 0.04060686 -0.10959834 0.06698672
0001d0 a2 14 7a bd 5a 6a 26 bc be ac 5a bd e8 48 84 bc
       -0.061054833 -0.010157192 -0.053387396 -0.016148046
0001e0 c0 b9 1a bd b9 39 99 3d 54 e0 f0 bc 9d 2d af 3d
       -0.0377748 0.07481713 -0.029403843 0.08553622
0001f0 23 d7 be 3d 3d f6 cd bd de 33 d9 bd 21 e3 b4 3d
       0.09318378 -0.10056732 -0.10605596 0.08832384
000200 38 b7 0e 3f d7 4d 04 c0 18 92 a6 3e 26 08 86 3e
       0.5574832 -2.067251 0.32533336 0.26178092
000210 1b 95 97 3e 69 fe 12 be 2a fb bd 3e fa d8 6b c0
       0.29605946 -0.14354862 0.37105685 -3.6851182
000220 d5 e2 c6 3e e7 16 0a 3f a5 83 1b 3d e5 9d 39 3e
       0.38844934 0.53941196 0.037967343 0.18126638
000230 17 f7 5a bf c6 87 a5 3f d1 ec cc 3e 9c fb 41 c0
       -0.8553328 1.293206 0.40024427 -3.030982
000240 a0 26 cb 3e b7 81 a6 3e 67 6e 22 3e 14 38 27 c0
       0.39677906 0.3252084 0.15862428 -2.6127977
000250 17 dc 3f c0 a2 73 d0 3e 0f 0f 09 3f 71 9d 79 3e
       -2.9978082 0.4071322 0.535386 0.24376465
000260 12 0e 65 3e e6 1e 59 c0 0f 11 05 3d 28 df 34 be
       0.22368649 -3.392511 0.03248697 -0.17663252
000270 9f fd 81 3e 59 84 73 c0 0a e2 a4 3e 70 41 af 3e
       0.2538881 -3.8049529 0.32203704 0.34229612
000280 de 36 e9 3e bd 4f f9 3e 8c 87 1c 3d e9 ff 74 c0
       0.45549673 0.48693648 0.038215205 -3.8281195
000290 4c 9b 3d c0 f6 ab a6 bd 2e 6b c0 3e 35 fe 5c c0
       -2.9626036 -0.08138268 0.37581772 -3.4530156
0002a0 5f 43 9d bf 55 8f a4 3e 81 34 21 3f c2 5e 85 bf
       -1.2286185 0.32140604 0.6297074 -1.0419543
0002b0 15 25 f8 3e 89 43 9d bf e5 69 a2 3e f9 d1 79 c0
       0.4846579 -1.2286235 0.31721416 -3.9034407
0002c0 d5 0c 62 c0 f4 a6 08 3f 6e 69 52 bf 01 96 19 3e
       -3.5320332 0.5337975 -0.8219212 0.14998628
0002d0 47 7a 4f c0 62 03 ce 3d 0d 37 c7 3e 14 e0 09 3f
       -3.2418382 0.10059239 0.38909188 0.5385754
0002e0 a4 9b 86 3f 75 6f 8d 3e 44 65 b5 3e 29 e0 ea 3d
       1.0516248 0.27624097 0.35428822 0.114685364
0002f0 e3 49 83 3e 8d 82 b0 3e 4d c8 45 3e c2 10 d8 3d
       0.2564231 0.34474602 0.1931469 0.10550071
000300 ed f3 1c 3f 78 83 2e c0 c6 6c f4 3e 82 c2 03 3f
       0.613097 -2.7267742 0.47739238 0.5146867
000310 f2 b5 40 3f 0b 9f db bf 8d 0c 5f 3f 80 b4 01 c0
       0.75277627 -1.7157911 0.87128526 -2.0266418
000320 5e ed 17 3f 83 5f 33 3f 0f d7 00 be 91 51 03 3f
       0.5934657 0.70067614 -0.12582038 0.51296335
000330 ad 1c dd bf f5 d7 86 bf 4d 9f 2f 3f 59 15 e1 bf
       -1.7274376 -1.0534655 0.6860245 -1.758464
000340 4c ce 29 3f 2f 3b 20 3f 84 d8 34 3f 7b c3 6d c0
       0.6633041 0.62590307 0.70642877 -3.7150562
000350 b0 1f e6 bf ad d1 40 3f fd 19 3a 3f a0 43 51 bf
       -1.797842 0.7531994 0.72695905 -0.8174381
000360 11 d1 0e bf bf 10 f2 bf 97 51 55 3f 52 09 99 bf
       -0.5578776 -1.891136 0.8332762 -1.1955969
000370 28 be 52 3f 96 54 00 c0 a3 f6 db 3f de 1d 50 3f
       0.82321405 -2.0051627 1.7184643 0.81295574
000380 cc 20 2c 3f 26 ca e1 3e 8b 1d ad 3e a6 37 0a c0
       0.67237544 0.4409954 0.33811602 -2.1596465
000390 fa b7 67 c0 e8 d1 30 bd 40 b5 31 3f b8 da 79 c0
       -3.620604 -0.043168932 0.6941719 -3.9039745
0003a0 f8 d8 fc bf 87 83 13 3f 04 1d ad 3f c1 3d 13 c0
       -1.9753714 0.5762257 1.352448 -2.3006442
0003b0 cc 80 48 bd 41 c6 c5 bf 9c be d8 3e a6 31 1a c0
       -0.048950955 -1.5451127 0.42332923 -2.4092803
0003c0 86 2f 81 c0 02 6e 39 3f e0 08 5d bf 71 23 60 3f
       -4.037051 0.72433484 -0.8634167 0.8755408
0003d0 40 1c 9c c0 65 6d 8a 3d 13 8e 0a 3f 4d 89 19 3f
       -4.8784485 0.067591466 0.5412304 0.5997513
0003e0 dc c2 b4 bf 7d e3 9b 3e b0 b1 01 3f 90 e0 5d 3f
       -1.4121966 0.30446997 0.50661755 0.8667078
0003f0 37 53 12 3f 16 87 2e 3f b8 fa 03 3f 0c 1f 65 3f
       0.57158226 0.68174875 0.5155444 0.895005

net.2.bias f4 [64]
000000 1a 88 ff 3e e3 27 14 be 59 3a 9d 3e bc 54 1b 3f
       0.49908525 -0.1446834 0.30708578 0.6067617
000010 ae b4 f8 bd 8a 74 f4 3e cc c7 4f 3f 6e e8 98 3e
       -0.12143837 0.47745162 0.8116424 0.2986483
000020 ab 8c 7f 3e d4 29 1b 3f ce b6 2f 3f 98 b7 f4 3e
       0.24956004 0.606107 0.6863831 0.4779632
000030 52 71 05 3e 27 51 d2 bd 55 27 2d 3f 9e 8d b4 bd
       0.1303151 -0.10269385 0.6763814 -0.08816074
000040 52 90 7f be d4 4c 5c bd df ef 6a 3f 86 9b 0f 3f
       -0.24957398 -0.053784207 0.91772264 0.56096685
000050 b4 73 d2 3e 12 f3 fd 3e 6b ca da 3e f9 51 a0 3d
       0.411039 0.4959951 0.42732558 0.07828135
000060 8d 7f ea bd a2 ff 29 3d 20 46 a6 bc b1 a4 24 3f
       -0.1145011 0.041503556 -0.02029711 0.643138
000070 43 65 e1 3e 6c af d7 3e 00 18 5b 3f 1e 0f 6f 3d
       0.4402257 0.42126024 0.85583496 0.058364026
000080 82 2d a6 bd c0 c6 77 3f e9 e7 11 be b1 16 60 3e
       -0.08114149 0.96787643 -0.14248623 0.21883656
000090 61 95 c3 bd 6a d9 fb be 07 d3 f7 3f e2 8a e6 3e
       -0.09549976 -0.4918931 1.9361275 0.45027834
0000a0 69 93 ab 3e 44 f7 87 3e 43 dc 1f 3d fd 6f 99 3d
       0.33510903 0.26555836 0.039028417 0.07492063
0000b0 5c 12 95 be 67 ca a9 bd 0e 33 74 bd 23 a9 20 3f
       -0.2911557 -0.08290558 -0.059619002 0.6275808
0000c0 6a 3f 99 be 0f 6d 2c be 61 00 8a 3f 3d 63 d0 3e
       -0.29931194 -0.16838478 1.0781366 0.40700713
0000d0 df 85 33 3f a6 40 19 3f 8e e0 33 3f 44 19 c4 3f
       0.70126146 0.5986427 0.7026452 1.532021
0000e0 73 31 0d 3f ca 18 26 be 07 87 4c 3e 08 ac 4b bd
       0.5515358 -0.16220394 0.19973384 -0.04972461
0000f0 50 94 e5 bd 2d 58 dc 3e 27 94 7e bd ff af 33 be
       -0.11209929 0.43036023 -0.062153008 -0.17547606

net.4.weight f4 [2, 64]
000000 4f 07 e6 3f 18 a4 d7 bd b6 33 26 40 bb 86 32 40
       1.797098 -0.10529345 2.5969062 2.7894733
000010 bc 57 9a bd 54 d6 1e 40 73 d2 bb 3f c9 a9 b4 be
       -0.07536265 2.4818316 1.4673599 -0.35285786
000020 6a 8d 9b be f8 d2 17 40 14 b8 a0 3f f5 ea 14 40
       -0.30381328 2.3722515 1.2556176 2.3268406
000030 f1 3d ae bf 50 da db 3c 08 28 e7 3f 00 65 11 c0
       -1.3612653 0.026837498 1.8059092 -2.2717896
000040 74 a4 03 c0 bc 54 d6 bd eb d8 32 3f 06 4e 5d 40
       -2.0569124 -0.104653805 0.6986224 3.4578872
000050 a0 95 c4 3f a7 66 17 40 a2 73 3d 40 d0 96 75 bc
       1.5358162 2.3656404 2.9601827 -0.01498957
000060 b3 21 02 bd a9 75 73 bc c0 70 4f bd f0 17 b8 3f
       -0.03177042 -0.014859595 -0.050644636 1.4382305
000070 f5 89 c9 3f 49 68 5c 40 3b d7 f8 3f 76 c2 db 3f
       1.5745226 3.443865 1.9440683 1.716872
000080 40 2d 0a bc 5d 04 c2 3f 59 e6 9b bd d8 5f bb bf
       -0.00843364 1.5157582 -0.07612295 -1.4638624
000090 3c 01 b3 ba f4 f8 15 c0 a6 13 0a 40 3b 0e 39 40
       -0.0013656984 -2.34332 2.1574492 2.8914936
0000a0 25 d9 b4 3f 8d 31 90 bf 33 47 a2 bd 63 18 3c bd
       1.4128767 -1.1265122 -0.079237364 -0.045921694
0000b0 35 2d 04 c0 d0 76 8d bd af 6e 6e bc dc 5f 15 40
       -2.0652592 -0.06907427 -0.014552756 2.3339758
0000c0 d0 b0 c1 bf 9c bb ae bf e7 a4 f6 3f 30 82 6b 40
       -1.5132084 -1.3651004 1.9269074 3.679821
0000d0 94 ea b2 3f bb 82 d3 3f b1 5c 1a 40 e4 80 b2 3f
       1.3977838 1.6524271 2.4119074 1.3945584
0000e0 a8 bb c3 3f 54 85 40 bf 6e 2d 91 bf 6c a5 5a 3d
       1.5291643 -0.7520344 -1.1341989 0.053380415
0000f0 d5 d4 2f 3d 64 ec 3f 40 ea 01 ad bb 7e ef bf bf
       0.04292758 2.9988031 -0.005279769 -1.4994962
000100 53 7a 31 40 65 9e cb bc 85 be 18 40 e1 e2 f3 3f
       2.773091 -0.024855802 2.3866284 1.9053613
000110 fc fc 27 bd 02 ef 1c 40 ff 18 ef 3f c8 2c c5 bf
       -0.04101275 2.4520879 1.8679503 -1.5404291
000120 8e 55 bf bf 7e 9d 37 40 f9 e8 f3 3f 89 25 25 40
       -1.4947984 2.8689876 1.9055473 2.580416
000130 4e 5d 0d 3e de e4 8f bd 26 aa c8 3d de 8e de bf
       0.13805124 -0.07026075 0.09798078 -1.738735
000140 53 7a 1b c0 d4 7e 9a 3d cb 7b 6b 3f 4a 6f 9e 3f
       -2.429341 0.07543722 0.9198577 1.2377713
000150 7d 69 42 40 3d cb 14 40 6e c9 d3 3f ed 02 08 bd
       3.0376885 2.3249047 1.6545846 -0.033205915
000160 35 bd 7f 3d 53 fd 88 bd f6 9a ba 3d b6 0c 65 bf
       0.0624363 -0.06688943 0.09111588 -0.8947252
000170 87 66 68 40 59 3a b8 3f 45 68 3b 40 9d 37 15 c0
       3.6312578 1.4392806 2.928239 -2.3315194
000180 80 a8 c7 bc 2d b4 cd 3f a3 28 6a bd 45 66 2a be
       -0.02437234 1.607061 -0.05716766 -0.16640575
000190 46 78 0f bf 37 d5 e7 bf 35 70 27 40 47 fa e4 3f
       -0.560429 -1.8111943 2.6162236 1.7888879
0001a0 be 2f 50 40 81 ca 06 3f 15 39 30 bd 63 82 0b 3c
       3.252914 0.52652746 -0.043023188 0.008514973
0001b0 7b ae 09 c0 1c a3 e8 3c 5a 8a ec 3d cd c7 2e 40
       -2.1512744 0.02839809 0.11549826 2.7309449
0001c0 1c 4e 2d c0 8f 73 3d c0 12 52 20 3f aa 3d c7 3e
       -2.7078924 -2.9601781 0.6262523 0.38914233
0001d0 3c e8 fd 3f cb c0 06 40 1c 82 22 40 c1 6c eb 3f
       1.9836497 2.1055171 2.5391912 1.8392564
0001e0 00 13 e8 3f 9c 8d d9 be 61 95 46 3f 7e 85 e0 3d
       1.8130798 -0.42490852 0.77571684 0.109629616
0001f0 31 ac 4d bd e1 69 fc 3f ba af a1 bd 46 d0 81 bf
       -0.050213043 1.9719812 -0.07894845 -1.0141685

net.4.bias f4 [2]
000000 d9 87 9e 3f 6b 67 cd 3f
       1.2385207 1.6047186
